Cart_pole_model.pth (torch, 13719 bytes, 6 tensors)

layers.0.weight f8 [32, 11]
000000 03 52 ad 8d 7b f6 c6 3f d3 7b 5d e6 4e bb d2 bf
       0.17939705293487415 -0.29268238541220376
000010 2c f1 9b 14 15 f5 cc 3f ee f1 99 06 25 8e d4 3f
       0.2262293196325883 0.321175819822911
000020 97 29 f0 73 ab e0 ae bf 7e 63 eb ce 68 79 81 bf
       -0.06030784406910355 -0.008532351317102057
000030 94 a3 08 75 2a 0f c1 bf e5 6a a3 58 d1 fe c3 bf
       -0.13327532496012096 -0.1562139208607142
000040 6a be f1 5c c5 dd 9b 3f 38 95 85 22 39 95 d2 3f
       0.027213176534529294 0.29035786029119803
000050 dd e2 60 f9 4f 34 b8 bf a9 1e 12 54 ed a6 c4 3f
       -0.094548223861135 0.16134420971888133
000060 07 7f 5b 0c 45 86 ac bf 7c 37 7e 77 cc ae b7 bf
       -0.05571189666602377 -0.09251096646604923
000070 2b 34 63 90 80 78 d3 3f be cc 29 de e6 4b d2 bf
       0.304229870799477 -0.2858826798976216
000080 1c 0c 39 cb c2 ab c0 3f 4e 93 e5 91 22 b0 cc bf
       0.1302417270945576 -0.22412521480432662
000090 3a d5 61 65 35 ea cc 3f 2f 81 fa 6a 13 95 a6 3f
       0.22589747858334325 0.044106108483222044
0000a0 b7 78 97 2f 1d b4 c7 bf 81 35 cc 35 f7 1d cd bf
       -0.1851841432935026 -0.22747697951164628
0000b0 3d 2e 91 20 35 8e bd bf 70 c4 f7 43 70 34 da 3f
       -0.1154511646756697 0.4094505943058442
0000c0 0b 1b e5 88 88 f9 d5 bf 0c 78 f0 b1 90 ea c6 3f
       -0.3433553063263594 0.1790333622784036
0000d0 fd 1a 00 60 d0 7f e2 bf 0c 39 b3 a7 0f 20 99 3f
       -0.5781022906311076 0.024536366091347836
0000e0 d9 6d da d3 9f 2b d2 3f c9 2f 35 5a f6 a0 d3 3f
       0.2839126175765308 0.30669935998298264
0000f0 10 2b af 43 5b cf c1 3f 93 4a 7c 1e 3e 1e c5 bf
       0.1391405182351595 -0.16498543251562534
000100 70 16 40 ac 94 c6 b2 3f 0f 3a 6b 99 01 7c b8 bf
       0.07334260182695984 -0.09564218516900545
000110 b9 f0 72 6a 8e 4d d1 bf 68 67 48 4e 87 f9 d8 3f
       -0.2703586616078258 0.3902300133209935
000120 73 19 c7 5c e4 05 bf 3f f5 f1 fb 8b 08 a6 a0 bf
       0.12118365540582036 -0.03251673420706772
000130 e3 0c 56 cf db 4f 9a 3f 67 9d c7 3c a3 83 d1 bf
       0.02569526150683722 -0.27365952430269264
000140 09 a1 c3 b1 25 6f d1 bf 50 c4 c0 16 e1 d5 89 3f
       -0.2724088893869668 0.012614973551622694
000150 9c 01 0c 3f 9b a8 a0 bf 35 c1 1c 87 fc c9 98 bf
       -0.032536364980845195 -0.024208017107583763
000160 da be e0 58 7c b9 c2 bf 67 20 e6 4b d8 ec 2f 3f
       -0.1462855752920323 0.00024356975877659894
000170 d4 46 8d 69 3d a1 79 bf 8c ac 6e 84 ed 04 dd bf
       -0.0062572859686313605 -0.4534257691654566
000180 19 26 9b 18 02 fe c4 3f e9 f6 74 07 92 4b c6 3f
       0.16400171472041405 0.1741812263880356
000190 3d e4 7e 9c ff 4e c2 bf e1 51 98 f3 54 c9 d5 bf
       -0.14303584233656066 -0.3404133204324165
0001a0 62 9f ab 6b 7f 97 c0 bf b7 b3 57 67 7b d6 94 bf
       -0.12962334401458536 -0.020349434073000796
0001b0 d4 18 1b 9a 97 aa c4 bf 6f ab c1 f7 a9 ae cb 3f
       -0.16145606064509954 0.2162678203343051
0001c0 99 f3 4e f1 b1 48 d3 3f 2d 4f bf 76 7e 38 c0 3f
       0.30131195607446554 0.12672406004150485
0001d0 2d 46 5d bd 1a 6f ae 3f 73 0b 4b 27 3f f3 d3 bf
       0.059441409698262816 -0.3117215999338249
0001e0 3e 6a 7d e6 89 70 b8 bf 1c a8 3f 6c 29 b0 ce bf
       -0.09546720387644655 -0.23975103173808143
0001f0 8d 7a 3c be d1 ad d3 bf da 64 7f 94 af d8 c2 3f
       -0.3074840886855917 0.14723772765027016
000200 0e 23 9e 99 a3 98 c8 bf 51 70 70 64 fa 6b a2 3f
       -0.19215817452302314 0.035980057488104074
000210 6f d6 9c a0 1e 3f d3 3f 0d a4 41 9d ef 3e 9c bf
       0.30072751698330696 -0.02758383176152184
000220 32 eb 50 9a 93 d5 d1 3f a6 9b 11 99 5d 6a dd 3f
       0.27866067953043505 0.4596170420467679
000230 96 66 76 77 1b 0b c5 bf 3c 98 61 a1 0d e6 f6 be
       -0.16440146763925573 -2.1837850077942515e-05
000240 c2 3e f5 f7 09 cb 99 bf 2b 85 bd 6b d4 39 94 bf
       -0.025188594588427156 -0.01975185306162534
000250 e8 5b 36 e5 c1 35 be 3f 7d 48 ef dc 4c 7b a0 3f
       0.11800777288441078 0.0321907062240294
000260 14 86 51 68 95 fa cd 3f 59 49 26 98 76 6a d3 3f
       0.23420970529245777 0.30337300165515085
000270 33 4c 90 ee 32 56 c4 bf 87 53 5f e7 5f f0 cb bf
       -0.15888058327308982 -0.21827315137366218
000280 54 51 b6 78 ef bd d2 3f b3 25 9d cb 47 ef e0 bf
       0.2928427389936321 -0.5292090393860945
000290 a4 14 8d 3a 9c cd c5 bf c5 39 da 5b c2 58 a7 bf
       -0.17033722742977375 -0.04559905406232504
0002a0 53 4c dc 15 02 45 b7 bf 82 31 55 e8 84 6e b9 bf
       -0.09089673074440556 -0.09934263870417762
0002b0 1d 6c 27 e1 29 41 cb 3f 70 e8 90 b4 ec f8 c9 3f
       0.212926135004495 0.20290907684995174
0002c0 1d b5 da 68 cd fa dd 3f 1c e7 f7 7a 11 cb b1 bf
       0.46843276252441673 -0.06950482608945346
0002d0 62 97 20 01 c9 71 aa bf 88 d3 58 31 61 e8 c1 3f
       -0.051649361980067324 0.1399041644050636
0002e0 3c 5d 8c 65 bf a0 e3 bf 97 dd bb cd f2 b3 b8 bf
       -0.6133725150456608 -0.09649579546736785
0002f0 f2 01 5a fc af 0a b7 3f a4 c3 f0 ac 4d 4e a3 3f
       0.09000682745864433 0.0377067826851836
000300 d5 e1 ce 37 05 c7 b6 3f bd 12 2b bc b5 43 b7 bf
       0.088974310040505 -0.0908769211192277
000310 cd 44 9a 36 d0 e0 cd 3f 80 7b 49 95 08 f3 80 3f
       0.2334232584585493 0.008276049667242935
000320 a4 91 1e 43 fb cd bf bf bf 50 eb 32 65 1d ad bf
       -0.12423677815110651 -0.05686489340374256
000330 9b df 59 00 c1 d4 cb bf 15 fe b4 4c 30 a7 e3 3f
       -0.21743023411886217 0.6141587732490189
000340 97 cd d2 8e 10 26 c0 3f ce 32 a8 cc 48 29 c9 3f
       0.1261616418247342 0.19657239907282648
000350 ce 4b f5 36 ce 0a d4 bf df 09 f1 ed 6b b0 c3 3f
       -0.313159516973596 0.1538214599441536
000360 5b 12 72 17 ee 61 d0 bf c3 bf b5 c8 19 20 a9 bf
       -0.2559771756134858 -0.049073034048773966
000370 ec d3 36 ce b4 e3 c0 3f 7a ec 7a bc 27 83 c7 bf
       0.13194904393245055 -0.18369003966458647
000380 0a c3 fa 42 f6 18 cc bf b4 2a 7e a4 41 60 d8 3f
       -0.21951177855000764 0.380875025403536
000390 81 db 2b ae 8d ae e0 bf e2 82 d1 0b 14 47 d4 bf
       -0.5213077928336675 -0.3168382754720779
0003a0 64 a9 ed 73 bb b7 cd 3f 3e 58 c5 26 3b 79 b1 bf
       0.23216956291737312 -0.06825608917765266
0003b0 cb c4 fd 1d d1 8f cb 3f 40 b5 14 88 5a d3 be 3f
       0.21532644237917106 0.12041250059401865
0003c0 ed a5 c4 7b 1f a4 c6 3f d1 ca cc 00 8a e1 c9 3f
       0.1768836359345153 0.20219540633259794
0003d0 08 42 f7 a1 88 c0 cc bf 29 1f 7a 6b 9e b0 d2 3f
       -0.22462566288460573 0.29202995773128976
0003e0 84 2a 7a ea 1f 73 e0 3f 12 ea 1d 91 6a 42 dc bf
       0.5140533046372444 -0.4415537278324858
0003f0 5d ae de 91 9c e5 b6 3f 2f 4e 93 6d fb 80 cf 3f
       0.08944109498286808 0.24612372255670453
000400 2f 1e 20 c8 1c 52 c7 3f c4 6e ee ac 6d f4 aa 3f
       0.182193372457037 0.05264609085062724
000410 f5 76 ef f9 c2 14 c2 3f 9a 05 5f a3 81 4f c9 3f
       0.1412585945499171 0.19773884274586068
000420 c9 d4 6e 14 fd 4b d1 3f f5 1a e2 70 78 8e da bf
       0.2702629756489157 -0.41494570754768684
000430 73 92 c5 81 41 a9 dc 3f 3d ff 87 c7 6b ff b0 3f
       0.4478305594732667 0.06639741536491513
000440 91 0c ea b2 67 fa bb bf 76 ac d5 2a d7 e7 ce 3f
       -0.10928962820075784 0.24145021049057264
000450 94 aa 77 b4 13 bd b6 bf 27 a4 d4 76 2b 1a cc 3f
       -0.08882258563941497 0.2195486383655247
000460 9e 90 bd 21 9d 5a c8 bf 88 6f 35 39 b0 22 ab bf
       -0.19026531360134852 -0.05299902628277581
000470 6d e4 ca 97 3c 7b cb 3f 52 2d dd 52 47 3e ca bf
       0.21469838535066135 -0.20502559228985234
000480 c8 ea 74 8f 32 06 d0 bf f6 59 50 1b 78 92 cc 3f
       -0.25037826547092523 0.22321988424000921
000490 88 fe 23 3c a6 2f d6 3f b4 38 42 3c 99 a8 d8 bf
       0.3466582858381817 -0.3852904404128694
0004a0 cf fb 6a ab 3e 13 b5 bf dc 20 8c b1 ad 8a a4 3f
       -0.08232490239150468 0.040120532916320534
0004b0 18 e0 2d a2 98 4b be 3f b0 af 96 03 b5 69 b8 3f
       0.11834100684598103 0.09536296212780715
0004c0 5c 9d 83 80 05 de c3 3f 54 00 eb 0e f4 4a b8 bf
       0.15521305823424825 -0.09489369739731163
0004d0 32 7c 4d be 76 9b d2 3f 06 45 2f 89 86 8f d4 3f
       0.29073875984426245 0.3212601031965082
0004e0 20 8d fa dc 53 ef c4 bf 57 4a b8 dd df 13 d8 3f
       -0.16355369844414103 0.37621304180462317
0004f0 db 17 2a 1c b4 80 cb bf 59 8d 69 31 57 1c c0 3f
       -0.21486522078720224 0.12586488640509222
000500 05 16 2b be 00 2d d2 bf f7 0b 10 3d cf b9 cc bf
       -0.2839967591392852 -0.22442045671058938
000510 47 65 3f ee 42 53 cb bf 79 96 18 b7 91 51 96 3f
       -0.21347843774018768 0.021795536804481295
000520 80 bd ea 1c cb 1d b9 bf 78 5e 6c 9b f1 18 c4 3f
       -0.09811086135845493 0.15701122368840337
000530 e4 99 15 8d ec 2d 88 bf ac 00 ff 84 7f 3a be 3f
       -0.011806343131593296 0.11808011052107997
000540 df 70 b8 d6 f5 c5 c3 3f 0e 73 fb 8c 7a 06 ce bf
       0.15447876915357647 -0.23457271465203927
000550 5e 93 36 aa 4d 29 b0 bf 81 96 b3 f9 22 95 bf bf
       -0.0631302395400559 -0.12336939426639938
000560 fc 6f f2 e4 32 e4 cb bf 65 49 2f e6 6c 04 cc 3f
       -0.21790157488874218 0.21888505210388157
000570 a3 9f d4 5e ab 41 cf 3f ce bf 0a 59 58 63 d2 bf
       0.24419157152555923 -0.2873135442305256
000580 bd b4 2d 28 7a 4b d9 3f 45 c3 f7 6b c5 64 d2 3f
       0.39523176120458087 0.2874005846379542
000590 4e 99 e3 96 63 6e e2 bf 71 49 8d a2 6f 25 de 3f
       -0.575975222306434 0.47103491663178604
0005a0 ed 10 88 70 6e 93 c4 bf 03 78 2e 13 3d 16 d1 bf
       -0.1607492494077926 -0.2669823348350066
0005b0 7d 20 c0 22 38 60 ba 3f 18 66 01 f9 a0 83 a7 bf
       0.10303068970108771 -0.04592612304322702
0005c0 05 8d 73 a1 df 9a b7 3f ef 00 5c 42 de 20 c2 bf
       0.09220693294223643 -0.1416280578632789
0005d0 14 5c 26 fb 97 40 c7 bf 8a 88 6d c3 4a 48 cc 3f
       -0.18165874255348113 0.2209561781156178
0005e0 d8 24 ac 99 8a 17 da 3f fe 89 0b 5b 1e 26 df bf
       0.40768685347627587 -0.4867015732872061
0005f0 68 fa 1b 12 99 45 b2 3f e2 ea 5b de 52 6e d4 bf
       0.0713744801723607 -0.31923362459899185
000600 96 14 de 10 c6 aa d4 bf a7 56 1b 03 97 6e 85 bf
       -0.32292319915024714 -0.010464839727699028
000610 86 e2 21 3a e6 f4 c1 bf 86 82 81 b7 bc 75 c7 3f
       -0.14028623426908754 0.18328055343865318
000620 43 89 fb 9b 61 21 bb bf c1 f0 78 a1 b6 90 cc bf
       -0.1059781080071263 -0.2231663025321549
000630 0c 8c fd 77 5d 8c c2 bf d0 0b 2c 28 52 64 d7 3f
       -0.14490860327632082 0.36549810336162825
000640 2c c2 52 70 1b cf db bf d7 13 cb b8 47 73 de 3f
       -0.4345158192545877 0.4757861427900116
000650 e6 ad 0e 3f ea de e0 bf 48 0a 6a b6 04 81 d3 3f
       -0.5272113067234698 0.30474965871704685
000660 47 1f de 1b b4 d2 b1 bf 07 8d 31 4c a7 35 c3 bf
       -0.06962133102763089 -0.15007487507237036
000670 0b 13 12 83 7a 7a c0 3f 2b 8b 13 5c 56 b3 a4 3f
       0.12873774909908095 0.04043073533991611
000680 12 33 ab ff f0 b1 b4 bf ab 50 9e fe ef 6b cf 3f
       -0.08084017030632776 0.24548149044551812
000690 72 d9 ab 25 2d e1 ce bf c9 78 d5 f5 b7 1b b4 3f
       -0.24124683703821465 0.07854795219234058
0006a0 a7 cc 08 ad 39 9d de 3f dc 5e 8a 07 d8 03 dc 3f
       0.4783462705410763 0.43773461090448307
0006b0 8f eb a4 3e d5 fe be 3f be c0 2c d4 b2 2e c4 3f
       0.12107594279670607 0.157675126648888
0006c0 a4 85 5a 13 fe 80 c5 bf 46 7d 8e b3 11 fe d0 bf
       -0.16799903817176898 -0.2655071500284588
0006d0 f2 84 1c 25 ae a6 95 3f b6 0b 72 8a 17 54 bf bf
       0.021143647208309475 -0.12237689142243266
0006e0 08 d5 30 4f 44 66 c8 bf 67 e0 04 7b 55 b7 c2 bf
       -0.19062093607650632 -0.1462199068716956
0006f0 99 c2 e2 5d b4 69 c2 3f 00 bd a9 e9 a7 b4 a1 bf
       0.14385084709421816 -0.034581420205421765
000700 42 e0 5a 0c 5b 87 c9 bf 5a 9e ae 3a fd 98 6c 3f
       -0.19944322684546206 0.00349091967423813
000710 5b 4e 5e 67 9e 5e c6 3f 59 2a f8 dd 80 d6 ba 3f
       0.17476253554615337 0.10483556193518363
000720 20 ee d3 ee 1c de c9 bf 27 fb d9 d2 6a e9 ce bf
       -0.20209085141674255 -0.24149833007319296
000730 48 8d f2 2a 16 c8 c9 bf 39 04 a1 17 26 da d5 3f
       -0.20141865822834348 0.34143974597469967
000740 ed 20 d9 a4 3f e3 d0 bf d0 aa db 15 51 31 bf bf
       -0.26387015436604494 -0.12184626372951901
000750 df e6 33 71 8c a1 d2 3f 56 a0 aa 2d 07 2b a3 3f
       0.29111014418559295 0.03743765289738181
000760 b0 dc d0 d1 20 71 c6 bf 16 29 00 ec ce 59 a2 bf
       -0.17532739872851755 -0.03584143286578205
000770 c4 92 5e 33 be f9 ca bf 31 0b 5c 84 a1 5e cd 3f
       -0.21074655063889314 0.22945040667408415
000780 92 b5 b4 bf e9 9f be bf 0d bb 61 50 f4 b6 c6 3f
       -0.11962757997817722 0.17745832371607442
000790 bd f5 b7 0d b7 21 d0 3f cf f1 75 fd 37 a7 d9 3f
       0.25205780353266133 0.4008312201692918
0007a0 1d 25 6f 34 ec eb da bf ab ec eb b9 6b 3b df 3f
       -0.4206495773365349 0.48800175815967844
0007b0 76 3d af b3 8b 64 c2 bf 7a 5b bc 85 41 e3 c3 bf
       -0.14369341157587784 -0.155372801113767
0007c0 0f 8f 29 3b 3f d6 cc bf f0 b3 15 38 0e 90 c6 bf
       -0.2252882994536027 -0.1762712262965631
0007d0 1f 8e 1c 66 b7 ff a0 bf 2d bd 4d d3 25 24 c4 3f
       -0.03320096131781391 0.15735314195215136
0007e0 b9 fd 4d b4 bc f2 bc bf 19 c3 74 c8 50 e1 ce bf
       -0.11307887460679113 -0.24125108516593555
0007f0 e4 bd 09 58 ab 7e d3 bf 9d 6b d1 2f 66 6f cc 3f
       -0.30460628125635325 0.2221496327864231

layers.0.bias f8 [32]
000000 42 9d 43 86 76 61 d5 3f ae e7 9d 3a ae 7c d7 3f
       0.33407366859178833 0.36698489879892804
000010 5f 39 57 f6 d7 ac e1 3f c3 2d 9b 13 61 69 a0 bf
       0.5523490725843593 -0.0320539795335111
000020 a4 93 0b 89 68 5b bc bf d0 cf c5 2f da 44 c2 3f
       -0.11076978059607129 0.14272620518352008
000030 75 77 88 23 4d d2 e4 3f a0 95 ad f3 d5 8b e3 3f
       0.6506715482716873 0.6108197936379618
000040 e1 1a 2c 5a ed 64 e3 3f a3 85 c5 13 eb e1 bb bf
       0.6060702096154637 -0.10891598923401218
000050 fc 41 88 36 e0 08 c6 3f e1 66 e9 10 30 2b 93 3f
       0.1721458688994203 0.018719435722551196
000060 50 d6 a4 84 74 fc c3 3f c1 4b a9 c9 e5 8e a8 3f
       0.15614181973221486 0.04796522223173084
000070 0e a4 bc dc 01 ff c8 3f fd 21 05 85 3e 83 ce bf
       0.19528220441978345 -0.2383802556526148
000080 6c 04 ca 08 46 38 e3 3f f0 9c 50 9a 27 ac b4 3f
       0.6006193324721045 0.0807518722291325
000090 02 cd f3 4c 43 f8 d7 3f 06 19 7e 4e 26 ff ae 3f
       0.37452776446225766 0.0605403872314572
0000a0 c6 54 b0 5e 20 a3 ab bf 80 b5 87 9c 35 ba cc 3f
       -0.05397893100613653 0.22443266051361022
0000b0 85 72 ea d2 96 62 89 3f 3e ec 6f f7 5d 09 d1 bf
       0.012395075141563136 -0.2661967197779552
0000c0 74 11 a4 91 05 4f cd 3f 79 39 31 a3 b4 ff dc 3f
       0.2289740525376477 0.45310703217264564
0000d0 ea b7 81 7c 28 46 e5 3f 81 1d ab 2c bd ee d1 3f
       0.6648142272731523 0.28019646989965713
0000e0 d4 f0 a0 35 71 0b a6 bf 31 f0 67 29 ec 17 c9 3f
       -0.04305604724547299 0.19604255697038434
0000f0 b0 65 b0 ad 02 07 d4 3f c0 11 5f 8d 6d 43 d1 3f
       0.31292788469144295 0.2697404747562153

layers.2.weight f8 [32, 32]
000000 d9 ef 1a ad 28 6c c6 3f 58 ac 39 08 65 4c c3 3f
       0.17517574741748268 0.1507688799059419
000010 e0 7f f8 33 a6 9a 9b bf 30 72 88 09 5c a0 b4 bf
       -0.026957127496757383 -0.08057189209689208
000020 cc 61 03 92 7e 35 c5 bf 08 e3 24 fc c3 fa b8 bf
       -0.1656950200038082 -0.09757637887822679
000030 1c 31 2c 7e a5 9e d3 3f 34 61 61 8b a7 b8 bb 3f
       0.3065580112604651 0.10828635361520328
000040 c7 92 96 0f d0 ad cb 3f e6 52 13 76 ff 19 a7 bf
       0.2162418438066622 -0.045120223201285545
000050 26 d0 c1 ba 9f 0e a0 3f b1 59 ab 8f 50 7d 9a bf
       0.03136157183408299 -0.025868662613754704
000060 97 03 c2 4e 86 36 95 bf fb 09 77 d8 2a 54 aa bf
       -0.02071580749225496 -0.05142339603800746
000070 37 9a fe c5 58 9a a7 bf 99 1d 18 90 c9 5d b4 bf
       -0.046099447411780785 -0.07955608146595806
000080 49 51 1a b8 29 a9 d0 3f 76 d4 5f 3e 4e 2f b3 3f
       0.2603248880270895 0.0749405767708867
000090 c1 5c 6e ae d5 29 d1 3f e9 0b 41 c2 06 13 6a bf
       0.2681783870152224 -0.0031829006202612653
0000a0 40 fc 0d 69 25 7e c1 bf 08 52 67 b3 f7 5f 93 3f
       -0.13666217450733775 0.018920774769712906
0000b0 20 28 9a b6 50 95 9b 3f b3 42 ed 1e df 89 93 3f
       0.026936780114319103 0.019080625784513482
0000c0 65 2d 77 5d b7 de d0 3f 32 ca 59 18 d6 95 d0 3f
       0.2635935223340396 0.259145282535573
0000d0 73 5a 18 ef 8c 36 d9 3f eb e1 4a e9 c8 9d 94 bf
       0.3939544997132664 -0.020133151282353195
0000e0 27 ed b6 61 27 cb bc 3f 1b 76 c5 3e da 35 c0 3f
       0.11247488151177674 0.12664344849592699
0000f0 32 7a 7f 83 6e 57 c5 3f 2a 5f d3 a1 de 7d 9e bf
       0.16673070355223413 -0.029777029635481934
000100 80 85 67 e2 af bc ac bf 38 bb 59 ec 6f 3f aa 3f
       -0.0561270679352317 0.05126523742807482
000110 9b 12 0c 43 91 5f b1 3f 24 6f 08 d1 1c 50 b4 bf
       0.06786449324506309 -0.07934742072432904
000120 2b 24 ee 2f 5d f9 c7 bf f8 7f 83 ed 62 d6 b9 3f
       -0.1872974857363102 0.10092752741502398
000130 11 81 d7 5b 50 43 bc 3f c5 b4 30 80 ab 97 ca 3f
       0.110402128622358 0.2077535987786289
000140 7c c4 e9 5d 47 9a c3 3f 36 f8 8e 1f 85 c7 c0 3f
       0.15314571462252846 0.1310888675779453
000150 45 0f 48 53 8d 15 b1 3f d8 5e 72 b3 fd ee b2 3f
       0.06673510821570712 0.07395921355270774
000160 f7 af db 17 3f a1 c7 3f 11 08 1e de a0 37 74 bf
       0.1846083513731853 -0.004935863866082372
000170 89 bc a7 20 24 b8 a7 bf 75 db 8c 1e 62 6a b0 3f
       -0.04632676027892397 0.06412328000884122
000180 87 80 71 ed 16 4b a5 3f 4b 93 4b 96 e3 e8 bd 3f
       0.04158851288298231 0.11683485431019595
000190 54 9e 61 a2 4b 32 c7 3f 42 59 ae e8 27 12 b9 bf
       0.1812223952176618 -0.09793328695954975
0001a0 aa 49 14 7c dd 72 a6 3f 38 58 4a f9 f3 b4 ba 3f
       0.04384510173453589 0.10432362400237671
0001b0 a5 26 3b 74 cc b9 c1 3f af 41 b5 e5 e1 4d b3 bf
       0.13848262477249765 -0.07540714128595626
0001c0 aa 28 5a 92 fa 44 a1 3f 7e b6 e1 1c e4 22 c6 3f
       0.033729391446358406 0.17293979082335292
0001d0 62 62 fb 97 24 0d d5 3f cb 6d b4 17 b9 af b9 bf
       0.3289271816443372 -0.10033757046442486
0001e0 e2 7b 0a 67 22 85 9f 3f d7 1f d3 7c ab 37 c5 3f
       0.030781304873581557 0.1657614097114208
0001f0 ac c1 fd 65 c2 7a 62 bf ae ad 06 08 96 cf ab 3f
       -0.0022558018535436455 0.05431813095068648
000200 f8 cc 29 3f 87 71 c3 3f 62 c2 40 fb 0b 7b c0 bf
       0.1519021089949104 -0.12875509041033967
000210 83 a4 e2 22 2a c9 ad 3f 77 f2 da 1b 9e e8 a2 bf
       0.05817538905950761 -0.03693098154096657
000220 1b 7a 90 56 3e 0e b6 bf 49 49 ec 65 9a 30 c3 3f
       -0.08615483868968747 0.14992074944218306
000230 14 e5 95 f9 15 d1 d4 3f 7f f4 d3 14 c8 8a 95 bf
       0.32526158689104645 -0.02103722216724124
000240 00 c8 3a ba 9b 27 c3 3f b5 9f 1a 25 48 5a ac 3f
       0.14964624970667728 0.05537629559449845
000250 b9 32 56 42 90 0d 8d bf 0d 75 af 78 54 0b bf 3f
       -0.014186026596484923 0.12126663156910329
000260 02 0d a7 7e 18 b0 b5 3f 64 4f 68 3d 5f a2 b3 3f
       0.08471825687506754 0.07669635056691743
000270 1e a7 f5 60 5f 1e bf 3f 10 08 8e e2 17 f1 bd 3f
       0.12155719868829037 0.11696004181979469
000280 1b b0 b8 ce a6 99 86 3f 94 90 fa 4e d9 6a 6f bf
       0.01103525465358506 -0.003835129194913087
000290 09 61 d6 66 7f 7b ca 3f cb d9 e0 49 60 5c b7 3f
       0.20689384957655246 0.091253297840786
0002a0 dd 49 39 33 68 77 c7 bf 99 3f b5 79 c6 40 b6 bf
       -0.18333151341592116 -0.0869258925570179
0002b0 99 82 5b 03 dd 8e c8 3f 2b c2 88 97 16 3d 82 bf
       0.19185984291018057 -0.008905579089600732
0002c0 b9 55 72 19 6f 8c ca 3f ce 32 34 4f 18 f4 d0 3f
       0.2074107050181462 0.2648983739352787
0002d0 bf fd 11 42 89 b3 d3 3f 54 b5 28 b1 c5 1e 91 3f
       0.3078330178468284 0.01671894925873592
0002e0 c7 53 30 bf 66 83 c0 3f 85 b9 94 f2 75 32 b2 bf
       0.12901005111112182 -0.0710824696768438
0002f0 81 f3 d8 2e 6a c7 bd 3f 04 5d 9f 13 67 ee 90 bf
       0.11632407802330925 -0.016534433911002303
000300 cf 78 0b 84 da c8 c8 3f ef 62 5b 71 7d 6c c2 3f
       0.19362956473827928 0.14393585238465031
000310 0e 64 38 14 0c 11 87 bf 1f 48 ab 78 4f 25 c5 3f
       -0.01126298367221248 0.16520112411541363
000320 0b 19 fc 2a 5d eb b4 bf 34 47 9a f1 b0 16 a2 bf
       -0.08171636866982028 -0.03532937001467787
000330 9a ca 35 31 47 e9 b8 3f 1c e4 06 f1 c6 18 b1 3f
       0.0973095412389661 0.06678431877561802
000340 83 78 e7 ad 84 b3 bd 3f c2 08 44 17 37 91 bb bf
       0.11602048154552062 -0.1076845580865067
000350 74 b4 df 43 1d 95 b0 3f 9e d8 8b 2e 48 14 b0 bf
       0.06477530390812253 -0.06280947815307278
000360 dd 2e 90 e8 88 e3 bc bf 59 d7 6b 48 a1 8a b3 3f
       -0.11284690549672001 0.07633407610032118
000370 32 eb 30 01 51 fd ad 3f 53 1b fc 93 01 4c c0 3f
       0.05857327594318064 0.12731952405757826
000380 59 ab 62 72 bd 72 a3 3f 28 f8 45 a7 c0 0f a2 bf
       0.03798477193171008 -0.035276432437044314
000390 c4 1f 68 97 29 c6 cd 3f 98 ee af 27 0f f4 c8 3f
       0.23260993855387657 0.19494809568265192
0003a0 a4 90 94 12 9f 9c 86 bf db 24 8a e1 42 4b 91 bf
       -0.011040919069792494 -0.016888661399694676
0003b0 7a 66 fc 9f af cb c9 3f 1b be 0b 4b e5 55 b5 3f
       0.20152850448430454 0.08334191400694417
0003c0 0c b1 16 46 10 4d a0 3f af 2f fc f6 ec d0 c3 3f
       0.03183794837545592 0.1548134046537348
0003d0 b5 2a 37 a7 5d 5b d6 3f 23 80 e5 d1 9e 32 93 bf
       0.34932652787817214 -0.01874778896433339
0003e0 c0 11 c3 86 dc b0 b9 bf 8b 53 d1 3a 36 d7 aa bf
       -0.10035494127357136 -0.05242318599690695
0003f0 60 a2 c1 6b e7 9a 92 3f 83 13 b2 4e b5 6f ac bf
       0.018169036819389084 -0.055539766174695714
000400 76 49 4f 2e d9 63 d2 bf 83 4c 8b 7a ce d3 c5 3f
       -0.28734426042969774 0.1705263231620827
000410 f0 e2 8b 6a b1 31 d0 bf 54 6f 32 67 27 f7 c0 bf
       -0.2530330219738479 -0.13254253901402058
000420 ca fa 81 4a 7e 1e b7 bf 1e 7e 12 65 5a c5 97 3f
       -0.09030904120480013 0.023213779849014064
000430 43 f8 f7 f4 e3 47 d9 bf 18 4a d2 18 37 21 b3 bf
       -0.39501284525602304 -0.07472557407371772
000440 0c d4 d1 03 75 47 c1 bf 5a 5a e9 e5 fb 09 ce 3f
       -0.13499319731241177 0.23467968679570356
000450 1a 0a 8a 59 bb 47 c3 bf 77 3f f0 f8 fb b1 c1 bf
       -0.15062658187896788 -0.1382441487808099
000460 46 29 bf 18 e5 ef b5 3f 12 7a df 33 12 7e c8 bf
       0.08569175581138663 -0.19134738476618957
000470 ff 7f ea a7 f5 c8 a0 3f c4 1b 17 40 16 46 b7 bf
       0.03278320002323198 -0.09091319145873827
000480 d0 f7 ab 52 1c 6f bd bf c3 dc 5d 5a de ec 9f bf
       -0.11497666376450799 -0.031177019372503844
000490 88 24 29 9c 99 99 d5 bf 5a 55 ad 3e 3f b9 ba 3f
       -0.33750000238485045 0.10438914566232907
0004a0 59 61 59 1e b0 1e 8a 3f 2e 37 74 b7 c0 f0 ac bf
       0.012753845144445707 -0.05652429809025104
0004b0 65 0e dc e1 c7 fc d0 bf 6f d7 75 29 64 d4 7c bf
       -0.2654285150203804 -0.007038489587435011
0004c0 ca 1d 29 e5 d6 82 b0 bf 08 10 f9 89 2b 58 b5 bf
       -0.06449645132771945 -0.08337661856154466
0004d0 6e 3d 99 48 02 6e cc bf a9 35 87 8b 28 53 d0 3f
       -0.22210720581868365 0.25507558465764163
0004e0 5e e1 94 7b a5 67 ca 3f 81 4c 6a aa 68 af b3 3f
       0.20628803762680098 0.0768952766468818
0004f0 b2 5d 5f aa 49 fc ab 3f 44 e5 99 86 39 36 d3 bf
       0.05465917782538145 -0.3001846136536026
000500 87 a0 db c1 d2 c1 be 3f 6e 34 82 46 1e d5 a7 3f
       0.1201450084005292 0.0465478383131107
000510 6c 85 11 e4 84 e2 76 3f e4 0a 15 8e 0d 10 90 3f
       0.005587119202659845 0.01568623714161789
000520 00 4d 5b df 3d 69 8d 3f fe c1 2b 09 65 a9 a6 3f
       0.014360888842395614 0.04426112877797904
000530 95 e4 aa 31 4c 61 9b bf c6 3e 4c 30 c2 ec c7 bf
       -0.02673834851404829 -0.18691279753010387
000540 77 76 a5 43 14 cd 99 bf 45 46 fc ba 46 42 be bf
       -0.025196377400212158 -0.11819879593920131
000550 16 ed e6 71 bc 47 99 bf 6b e0 eb 3c 59 25 9e bf
       -0.02468771405413602 -0.02943934854826617
000560 89 ea c1 13 84 a1 97 bf de e2 af a5 99 fb aa bf
       -0.0230770718630802 -0.05270080707118095
000570 5e 96 2a 27 f3 1f b5 3f 71 3a f4 1f 6a cf a3 3f
       0.08251876550874601 0.03869182243407899
000580 0b 91 81 41 52 6d bf bf ee ba 74 cb b0 76 b0 bf
       -0.12276186084051603 -0.06431107489764162
000590 a3 c8 f3 6f 82 8e b2 3f 10 7d 09 54 73 53 a2 bf
       0.07248702271661726 -0.03579292679637025
0005a0 60 8f 27 10 93 0d d2 bf d4 81 19 0d d5 42 b9 3f
       -0.2820785196074578 0.09867602891745914
0005b0 0f 13 83 93 eb db cb bf 62 83 6a d2 6a 94 c8 bf
       -0.2176489324830517 -0.19202933572980913
0005c0 c9 20 58 b3 21 0c d3 bf f7 61 69 a1 47 28 a1 3f
       -0.29761545671545925 0.03351043553692883
0005d0 76 2c e1 d7 a8 2b c8 bf 07 57 79 dc 97 5d b8 3f
       -0.18883238354678483 0.09517811901727323
0005e0 02 0e 25 a6 37 37 89 bf 7a 72 56 aa f0 9d d3 bf
       -0.012312350042186008 -0.30651489862956505
0005f0 12 61 5b 89 f9 21 b4 bf 6f 4a aa a0 9b 57 a0 3f
       -0.07864341357651863 0.031918395388079605
000600 58 35 0a 31 69 f2 c6 3f f9 c6 79 bc b1 76 c6 3f
       0.17927279371762483 0.175497262028834
000610 7a 53 d1 5a 9f e0 a7 3f e1 29 87 da 80 de c3 3f
       0.04663560851682909 0.15522776289283427
000620 f7 67 e3 01 50 65 c5 3f 20 8c d5 fe b9 ad c3 bf
       0.16715431301309966 -0.15373921340059926
000630 51 36 57 15 0b 9a cf 3f 79 85 c6 26 9f db a6 bf
       0.2468885282709601 -0.044644330485662694
000640 b0 52 58 ff b4 5a af 3f a3 66 5c 9c 07 28 c1 bf
       0.061238914651914 -0.13403411040126398
000650 68 53 3b 58 82 d0 a7 3f 67 16 ae 3a cf 0f 97 3f
       0.046512673635936974 0.02252124591497875
000660 f5 24 f4 b7 0d f9 b9 bf e7 d2 41 6e d1 f1 c0 3f
       -0.10145650616700037 0.13237970241211558
000670 c7 c2 0c a2 42 02 c4 3f 58 52 31 a8 7c f6 c3 bf
       0.15631897842970074 -0.15595968449146613
000680 80 8a 50 8b 53 4b bc 3f 87 20 35 02 a2 07 8a 3f
       0.11052438880191495 0.012709870998733898
000690 4b 15 fc 97 88 aa ac 3f 2f a0 ef 5d 70 95 b3 3f
       0.05598856787950498 0.07649900716171552
0006a0 6d d4 97 f5 9f d1 be 3f 81 d8 1d 9f 5e d8 ab bf
       0.12038612123417787 -0.054385144160662875
0006b0 1f 69 22 8e 55 ab c3 3f 5c 83 1c 48 e6 c0 c7 bf
       0.15366620483548218 -0.18557432671607443
0006c0 ca 7b c4 5e cf 69 c9 3f a2 5c 2d 9b 99 83 ad 3f
       0.19854156615562452 0.05764465350392213
0006d0 45 5b b3 d7 93 4a c1 3f 4d 94 57 d6 0c b0 ba 3f
       0.13508842499023835 0.10424881203614796
0006e0 b9 11 19 f3 29 7e c1 3f 69 f8 af d5 2f 5e c0 3f
       0.13666271562591506 0.1278743546863013
0006f0 6c fb 65 e1 ed c1 a0 bf 72 98 f0 59 bf f9 b1 bf
       -0.03272956253476064 -0.07021709390446221
000700 bc 1c 85 78 96 23 b9 bf 64 84 29 81 6d 06 c0 3f
       -0.09819927637464593 0.12519615942713636
000710 db 8b 1b 9a a5 5d b1 bf 47 bd 32 a5 01 73 ad 3f
       -0.06783518803017279 0.05751805440501783
000720 39 3b ae 5a 45 89 c1 3f 19 43 4f 41 3a df c6 bf
       0.13700167587054482 -0.17868736447282954
000730 97 df 4b 47 50 1d aa bf 13 02 7e c0 de 2c 70 3f
       -0.05100489492718834 0.003949041485498589
000740 bd 5b 47 4f f6 ce c5 bf d4 af 8e e5 a0 9a af 3f
       -0.17037848349602128 0.06172659685338969
000750 05 e8 ba 79 7f 2d b4 3f 0c 5a 4b 2a d9 6a ba bf
       0.07881924364019717 -0.1031928756959603
000760 ff 88 66 c6 c6 dd a3 3f 00 fe 41 4d ee 24 d0 bf
       0.03880139514810032 -0.2522540811987426
000770 7d 74 98 03 db db 82 3f 17 23 0b 88 62 67 cd bf
       0.009208403632380286 -0.22971755640744426
000780 14 93 fe 9b be 53 c8 bf 36 da 03 e5 60 18 b7 bf
       -0.19005568138995754 -0.09021573630511956
000790 0b 1b 27 59 6f 82 d1 bf 13 12 2d 72 a9 c6 91 3f
       -0.2735861178047549 0.017359397500756723
0007a0 5d 80 89 30 7f 72 ba 3f 40 67 0b 0b 05 d7 a1 3f
       0.10330958304393918 0.03484359512158486
0007b0 44 72 a3 93 a1 c0 ce bf b6 68 64 40 32 96 bc 3f
       -0.2402536364451341 0.11166681358409644
0007c0 ee c3 b2 d8 2a f0 bd bf 63 0f 61 0c aa 85 b5 bf
       -0.11694591322408573 -0.08407080461716769
0007d0 2e ed 9b 64 ba 8c b0 bf e9 f9 dc c0 5b 6c c5 3f
       -0.0646473403575569 0.16736933629176967
0007e0 23 6c cb a7 19 e4 c1 3f b3 0d da f3 72 2b ca bf
       0.13977356618019696 -0.20445095927071363
0007f0 e5 36 15 d6 3a f6 b3 bf 23 01 5a 2e c3 1e cd bf
       -0.07797591902382413 -0.22750129473934874

layers.2.bias f8 [32]
000000 a8 28 82 f0 98 91 b7 3f 68 03 5a cc 60 27 d0 3f
       0.09206539031780159 0.25240344959461547
000010 98 59 2e 82 d1 cc c6 3f 6b 36 06 94 1a 8e d0 3f
       0.17812556129929358 0.2586733289288989
000020 76 d6 4b 1a 68 c6 b2 bf 9e 33 c9 f1 13 cd b5 bf
       -0.0733399452400024 -0.08516049054124017
000030 56 41 91 d4 d5 b6 ca 3f c4 d1 a6 04 3a 5e 5f bf
       0.20870468978183493 -0.001914555223817436
000040 5f 01 48 79 40 ad c0 3f 19 3f 72 ce 6a 3f c6 3f
       0.130287226886149 0.1738103397406057
000050 2e 46 ed 0e f9 1a b2 3f 98 dc 7a 36 42 d8 cb bf
       0.07072407354760266 -0.217537190057304
000060 fc 25 7f 44 62 7d 61 bf 43 8e db f2 9a 01 cf bf
       -0.0021349829948789072 -0.24223648889811686
000070 9f 6d 9a 15 61 d6 ba 3f b8 1d a4 82 2e 6b c2 bf
       0.10483366753981337 -0.1438959253211871
000080 88 ad 13 1a f3 c6 b1 3f 4d ba 3f 8e fd a0 d6 3f
       0.06944198023454906 0.35357607738015845
000090 f5 c6 d4 b7 77 65 d0 3f 90 2a 60 88 28 fc c1 3f
       0.2561930937982731 0.1405077615639425
0000a0 6a 50 c7 67 62 8b b3 3f e7 79 03 4d 5f 70 cd 3f
       0.07634558709770692 0.22999182949474958
0000b0 89 22 0e e2 ef be 86 bf 80 12 cf a6 5b 9d c9 3f
       -0.011106371008069675 0.20011468548741007
0000c0 26 98 f3 36 e0 e7 8b bf 57 ee 08 95 4c 4b b1 bf
       -0.013625861813533712 -0.06755522383257904
0000d0 6e 33 1a f0 62 f5 d4 3f c3 50 a7 4a 3b cc 61 bf
       0.32747720191473817 -0.0021725805320134974
0000e0 ac 75 64 15 6f b0 c1 bf 2f e2 87 c1 e5 e1 9b bf
       -0.13819683594276222 -0.02722891801565391
0000f0 e1 a7 e7 37 73 f6 c2 bf d5 57 98 f6 63 ed b5 3f
       -0.14814605931979855 0.08565354128253884

layers.4.weight f8 [1, 32]
000000 71 10 f4 a7 b4 49 c9 3f d4 a5 ff 51 6d 71 c3 3f
       0.19756181908462936 0.15189901832427088
000010 3b 84 6a 1e 93 42 c3 3f 92 93 c4 29 84 2f c5 3f
       0.15046919808540501 0.16551258124777896
000020 20 47 4b 98 4b ea d9 bf 21 c1 61 8c e4 e3 c7 bf
       -0.4049252497908231 -0.18664223532278704
000030 74 14 a8 bf 6b 19 cc 3f 86 45 c8 0f 35 8f c0 bf
       0.21952578409414836 -0.12937033911343238
000040 a3 f0 78 c8 5c 27 ca bf 94 27 70 b1 c0 1e d4 3f
       -0.2043262461537597 0.3143769963067993
000050 85 eb 9b e3 d7 c2 cc bf af f4 b3 62 10 04 d1 bf
       -0.22469614614223246 -0.2658730472465533
000060 35 21 55 9a d9 8f c1 bf 52 9e b6 0d 26 ce d3 bf
       -0.13720245395439581 -0.30945731486506134
000070 af dd 50 66 2c f5 c4 bf fd cf 63 cc be 57 cf bf
       -0.16373209949391085 -0.24486527423835006
000080 4a e9 2e a9 81 fd c2 3f 38 10 90 2f 76 33 cd 3f
       0.14836140404606574 0.2281329853286722
000090 66 ef 6a 78 9a 94 c4 3f cc b5 9a d4 59 dc b6 3f
       0.1607850158669592 0.08929978790793952
0000a0 40 a9 d7 f2 94 ff ba 3f 60 d4 a3 26 8d 68 d1 3f
       0.10546236923952268 0.27200630925591973
0000b0 a1 3b 06 c0 b9 06 c4 3f 71 14 a9 10 ba ee c5 3f
       0.15645524860562168 0.1713478642797415
0000c0 1f 70 c3 42 66 54 de bf a7 48 1c 75 bf 68 9e bf
       -0.4739013339983575 -0.029696456454140343
0000d0 98 b6 e6 92 a9 0a c4 3f 63 fc df c3 3d 67 b2 bf
       0.156575390557397 -0.07188783676245829
0000e0 a2 83 82 43 f9 f7 bc bf a5 b2 34 80 0e 80 d3 bf
       -0.11315877817334166 -0.30469095726111056
0000f0 f1 31 2e 9a 02 53 d3 bf 1b 53 77 46 93 b2 bf 3f
       -0.30194153839764143 0.12381859274257716

layers.4.bias f8 [1]
000000 b5 f2 0a a8 fd bb a7 3f
       0.04635613132766051
